…
<div class="language-python highlighter-rouge"><div class="highlight"><pre class="highlight"><code><span class="n">model</span><span class="p">.</span><span class="n">summary</span><span class="p">()</span>
</code></pre></div></div>
<div class="language-plaintext highlighter-rouge"><div class="highlight"><pre class="highlight"><code>(결과) Model: "sequential"
       _________________________________________________________________
       Layer (type)                 Output Shape              Param #   
       =================================================================
       conv2d_3 (Conv2D)            (None, 28, 28, 32)        320       
       _________________________________________________________________
       max_pooling2d (MaxPooling2D) (None, 14, 14, 32)        0         
       _________________________________________________________________
       flatten (Flatten)            (None, 6272)              0         
       _________________________________________________________________
       dense (Dense)                (None, 100)               627300    
       _________________________________________________________________
       dropout (Dropout)            (None, 100)               0         
       _________________________________________________________________
       dense_1 (Dense)              (None, 10)                1010      
       =================================================================
       Total params: 628,630
       Trainable params: 628,630
       Non-trainable params: 0
       _________________________________________________________________
</code></pre></div></div>
:ET