…
<div class="language-python highlighter-rouge"><div class="highlight"><pre class="highlight"><code><span class="n">model</span><span class="p">.</span><span class="n">summary</span><span class="p">()</span>
</code></pre></div></div>
<div class="language-plaintext highlighter-rouge"><div class="highlight"><pre class="highlight"><code>(결과) Model: "sequential_1"
       _________________________________________________________________
       Layer (type)                 Output Shape              Param #   
       =================================================================
       conv2d_4 (Conv2D)            (None, 28, 28, 32)        320       
       _________________________________________________________________
       max_pooling2d_1 (MaxPooling2 (None, 14, 14, 32)        0         
       _________________________________________________________________
       conv2d_5 (Conv2D)            (None, 14, 14, 64)        18496     
       _________________________________________________________________
       max_pooling2d_2 (MaxPooling2 (None, 7, 7, 64)          0         
       _________________________________________________________________
       flatten_1 (Flatten)          (None, 3136)              0         
       _________________________________________________________________
       dense_2 (Dense)              (None, 100)               313700    
       _________________________________________________________________
       dropout_1 (Dropout)          (None, 100)               0         
       _________________________________________________________________
       dense_3 (Dense)              (None, 10)                1010      
       =================================================================
       Total params: 333,526
       Trainable params: 333,526
       Non-trainable params: 0
       _________________________________________________________________
</code></pre></div></div>

<p>첫번째 파라미터 개수는 3x3x32+32=320 식에 의해 산출된다. 두번째 파라미터 개수는 3x3x32x64+64=18496 식에 의해 나온다. 세번째 파라미터 개수는 3136x100+100=313700 식으로 나오며 마지막 파라미터 개수는 100x10+10 식에 의해 나온다. 필터마다 하나의 절편이 있다는 것을 꼭 기억하자!<br />
…
